checkpoints/bilstm_model.pth (torch, 550071 bytes, 18 tensors)

lstm.weight_ih_l0 f4 [256, 1]
00000000: 9169 4bbf 715a 70bf 4ad7 37bf 4fde b53e
00000010: 673b a3be cf24 583e df5c 72bf 54fb 57bf
00000020: 61c0 31bf 273f 90bf c776 23bf 933d d8bd
00000030: 937d 3c3d ae34 523e 1ad7 8dbe c956 a6bd
00000040: e461 ac3d 21b5 cfbe 4b04 3d3f 32d4 8bbf
00000050: d38b 1bbf 97ec e03f e58d fdbe c66c d33c
00000060: f6a4 ccbf f2ca 8cbe 5314 4dbf 9285 dd3e
00000070: 3910 7abe 112a 4bbf c382 67bf caee 0b3e
00000080: fa07 f03e af84 b6be afae 3dbf c7af 03bf
00000090: a505 96be f2a4 26bf 1246 5bbf ea37 9cbe
000000a0: dc04 e9be 5321 abbe 2504 81bf 4fe1 a3be
000000b0: 52d2 54bf 2908 09bf d92e d63d 36cb 0dbe
000000c0: 496d a73e a86b 9c3e be4f 3fbf 72a9 a9be
000000d0: 517c 3ebf e82a 5abf 8b94 4dbf 9b82 94bf
000000e0: 6ee5 b13e 460c 18be ca42 f03d dda5 0bbf
000000f0: c781 5bbf ce6d 3b3e 4b09 90be a10b a8bf
00000100: b0d8 d2be 7180 81bc 74b1 d2be 74bb 1fbf
00000110: 579e 0b3e 1675 193f aeac cdbe 0cdc 04bf
00000120: 91e7 aabd 21d4 23bf 7b8a 20be 6224 0abf
00000130: 20e5 813e 1736 073f 304e 21bf b41a 133f
00000140: ca9a cb3e 4a93 74bf 5816 02bf 0ac0 c1be
00000150: 1c4d 03bf 0528 aebc 9226 cbbe 1a82 ccbe
00000160: de7a 93bf 9499 45be f3da 1fbf 6915 243e
00000170: 0bc4 5d3d 7b40 c8be b2e6 d0be 3da9 4cbf
00000180: a029 98be 749d 10bf 87c5 39bf 66f4 85be
00000190: 4646 4fbc 753b 20bf c77e c5be 7ee1 193f
000001a0: 2703 233e 0d5b c9be f1fb 0cbf 0e3d 453d
000001b0: 5efa c4be 39f9 43be 1ff6 53bf f23d 57bd
000001c0: cffa b0bf 9e64 2cbe 9e8e c1be 82c3 64bd
000001d0: a386 0bbf b62f ccbe 8f97 bcbe 4c07 4abf
000001e0: 4c03 adbf d4a3 753e e220 ad3d e083 edbe
000001f0: bf86 51bf 08af 85bf 54a8 39be e1c8 49bf
00000200: a765 863e 1313 ef3e de6f 9a3d e832 173f
00000210: c18b afbc 3471 10be 39d0 813e 24b1 8d3e
00000220: 8eae 46be 39be 20be e671 b63d 3911 06bf
00000230: 3578 d03e 0d4f e23e cc0b 9e3d 2d39 d23e
00000240: fc10 ac3e 0631 94be 02b6 31bf d19b ea3d
00000250: 5929 823e cd40 443f b833 37be 13db e63e
00000260: 295f df3e 41ba a2be 92b6 0dba 329e 0f3f
00000270: 1033 313b e880 3ebd d9d9 3abe 06aa 153f
00000280: d53a 203f 741e d13e 4ff0 ecbd 813a ce3d
00000290: 1e8a 423e ade3 ddbe 716a 61bd 8fab 1ebd
000002a0: 6599 ab3e 34c6 c13e e174 28be 2045 8c3e
000002b0: 7e96 b5be 1e2b 203e 0414 073f 61ab bf3e
000002c0: 7f90 0a3f 33cc 25bf 1f47 043d e82f a63e
000002d0: f927 94be 9c00 983e 8f6b 6fbe 5dce e63d
000002e0: 811e 4e3e 5228 a73e c609 eebe 3810 423e
000002f0: bb67 0c3a 5b65 17bf 7467 ee3d 4bf5 483e
00000300: dc1e 4dbf e8ed 3bbf 83de 3cbf 79ae 2b3e
00000310: d150 26be a404 db3e 1e7d 47bf 9431 3bbf
00000320: 7928 3bbf 442b 95bf 30e0 11bf d2cf aabe
00000330: 5c4b f8bb 7cf2 683d d5be e5bd d2f7 9a3e
00000340: 2c8f 8bbd 17db c8be aaea 0c3f ec7b 88bf
00000350: 76bf 0cbf 6ad0 ec3f c0b5 0cbf 1b22 9a3d
00000360: 2be0 d6bf fed4 87be fd43 55bf d7f2 d13e
00000370: cf84 50be 8378 5ebf 7dab 4dbf b6dd 8e3e
00000380: 700c b73e 867b 78be e49e 06bf 396e 25bf
00000390: 0e51 d1be f001 17bf 0e0b 86bf 1347 5bbd
000003a0: a760 bcbe 57e0 86be 520f 67bf 2a6c 9abe
000003b0: b6f9 50bf d956 1cbf e71c b13e a18b 32be
000003c0: b557 703e 3cba bc3e 0315 5fbf 84da ddbe
000003d0: 59db 3bbf 150e 67bf 804e 22bf 1de3 83bf
000003e0: d98a 003f 0d70 2abe cd5c c9bd 916f 3fbf
000003f0: f173 70bf 5b2a 3e3e b3d4 9dbe def1 b4bf
-0.79457957 -0.93888 -0.7181288 0.3552117 -0.31881258 0.21107791 -0.9467296 -0.8436787
-0.6943417 -1.1269273 -0.63853115 -0.10558619 0.046018194 0.20527908 -0.27703172 -0.08122022
0.08417109 -0.40567878 0.73834676 -1.0924132 -0.6076023 1.7572201 -0.4952232 0.025808703
-1.5987842 -0.27498585 -0.8010914 0.4326597 -0.24420251 -0.79361063 -0.904339 0.1366531
0.46881086 -0.35648105 -0.7409467 -0.5144009 -0.2930118 -0.65095437 -0.85653794 -0.3051141
-0.4551152 -0.33423862 -1.007939 -0.32007834 -0.83133423 -0.53528076 0.10458154 -0.1384705
0.32700565 0.30550885 -0.7473105 -0.3313709 -0.7440844 -0.8522172 -0.80304784 -1.1602358
0.34745353 -0.14848432 0.11731489 -0.5454996 -0.857449 0.18303606 -0.2813209 -1.3128549
-0.41180944 -0.015808316 -0.4115101 -0.62395406 0.1363462 0.59944284 -0.40170807 -0.51898265
-0.08344949 -0.6399556 -0.15677826 -0.53961766 0.2537012 0.5281691 -0.6300993 0.5746262
0.39766532 -0.95537245 -0.50815344 -0.37841827 -0.51289535 -0.021259317 -0.39677864 -0.3994301
-1.1521871 -0.19296867 -0.62443465 0.16023792 0.05414204 -0.39111695 -0.40801007 -0.7994574
-0.29719257 -0.56490254 -0.7256703 -0.26163024 -0.012651032 -0.62590724 -0.38573286 0.601097
0.15919171 -0.3932728 -0.5507193 0.04815393 -0.38472265 -0.1913804 -0.82797426 -0.05254931
-1.3826541 -0.16835257 -0.3780412 -0.055850513 -0.54502314 -0.3988015 -0.3683438 -0.78917384
-1.3516631 0.23988277 0.084535375 -0.46389675 -0.8184623 -1.044404 -0.18130618 -0.7882214
0.2624943 0.4669424 0.07540868 0.5906205 -0.021428945 -0.14105684 0.25354174 0.2767421
-0.19402525 -0.15697564 0.08908443 -0.5237003 0.4071671 0.44200936 0.07717094 0.41059247
0.33606708 -0.28943652 -0.69418347 0.11455501 0.2542217 0.7666138 -0.17890823 0.45089015
0.4362729 -0.31782725 -0.0005405928 0.5610076 0.0027038492 -0.046509653 -0.18247165 0.5846256
0.6258977 0.40843546 -0.11569273 0.100697525 0.18998 -0.43337765 -0.05503315 -0.03873783
0.33515468 0.3784653 -0.16450836 0.27396488 -0.3546638 0.15641448 0.52764916 0.3743544
0.54126734 -0.6476471 0.03229439 0.32458425 -0.28936747 0.29687965 -0.23380874 0.112698294
0.20128824 0.3264795 -0.46491832 0.189515 0.0005356033 -0.5913903 0.11640826 0.19624822
-0.8012521 -0.7340989 -0.73777026 0.16765775 -0.16241767 0.42776978 -0.7792529 -0.73122525
-0.7310863 -1.1653829 -0.5698271 -0.3336168 -0.007577343 0.056871876 -0.11218039 0.30267197
-0.06814417 -0.39229652 0.5504557 -1.0662818 -0.54979646 1.8501103 -0.5496483 0.07526036
-1.6787161 -0.26529688 -0.83306867 0.41005585 -0.20363162 -0.86902636 -0.80339795 0.27903527
0.35751677 -0.2426587 -0.525862 -0.6462131 -0.40882152 -0.5898733 -1.0472124 -0.05353458
-0.3679249 -0.26343033 -0.9025775 -0.30160648 -0.8163103 -0.6107002 0.34592363 -0.17436077
0.23470958 0.36860836 -0.87141436 -0.43330777 -0.7338157 -0.9025586 -0.6340103 -1.0303684
0.50211865 -0.16644306 -0.098321535 -0.7477961 -0.9392691 0.18570845 -0.3082634 -1.4136312

lstm.weight_hh_l0 f4 [256, 64]
00000000: 2db3 21bc d9ba ac3e fbdc a73d 909c fe3d
00000010: b36b 74be dcef 2c3f ae06 a53e e9e4 093d
00000020: da42 d8bc edd0 1e3e 448c 4abd 177c a9bc
00000030: 388e fdbd d111 e5bd e0d4 d33d fa64 03bd
00000040: f7e2 273d e1a1 833d c230 633d d0b5 093e
00000050: b084 203e 748d 13bd 6e44 e53d 6c5d 923d
00000060: 096e 303e 5b30 47be 09a7 6f3d fe56 343d
00000070: ef1a fb3d 81e5 a6bd 47fc 5f3b a1c3 e3bc
00000080: 05c0 f43d eb15 653d fc3a edbd b6ce 0dbd
00000090: 191f cd3c 372e ecbc 6c89 57bc 5556 b2bd
000000a0: 61ed 7b3e 2d20 f0bd a6df bdbd 5328 1b3e
000000b0: 2a2f 593b 8362 8a3d 2849 ad3c 419d 063e
000000c0: 5714 91be ac2c a83d af9e 133d b1a5 303e
000000d0: 8970 2c3e 2641 563d b2d7 1b3d ecc0 75bd
000000e0: 2a5e b1bc 749e 673d 5579 dbbd d4b2 a7bd
000000f0: 32dd 143e 6c9a 9abd 109e 1dbe 6599 753e
00000100: 2071 01bd 109d 94be b4c4 933d 4fc3 973e
00000110: dd0b c43e 746f af3d 6f83 fabd 781b 18be
00000120: 0270 3f3e f0f6 ff38 c006 b8be ee45 78be
00000130: 5d5f 91be 143e 18bf f07a 6b3e 0812 fdbe
00000140: 3103 4fbe 34e5 933e afed 6f3e c035 acbd
00000150: c760 62be 997b 303d 68e1 8a3e f5d7 1bbd
00000160: bf04 dbbd 1552 8abd 20c1 38be 56f4 bbbd
00000170: a8fb 283f b335 983e 8243 e5bd 7c22 edbd
00000180: 7f14 f43c e297 62be 5675 283d 70f5 00bf
00000190: df59 52be 0128 ccbd 945d 6cbe f5e9 413d
000001a0: 041e 3cbe cee2 a83d 2e34 4e3e 4416 cebd
000001b0: 032e 8e3e 3b10 b6be 9239 393e 6a13 713c
000001c0: 064b 3bbe 9d4b c13d b083 9b3e a0ed b93e
000001d0: 6ef2 793e b759 90be 9381 243c a26b f73d
000001e0: 2af7 223e d57f cebe 30a5 44bf d299 03bf
000001f0: c247 19be 8b18 e0be c7e5 30be 5b3f 98bd
00000200: b87e 70be 0625 b33e 5cd3 393d 8660 003e
00000210: 5a42 80be d524 043f 1794 a93e e19c 433d
00000220: 2049 d1be 21ed c0bd daf8 a33d 9129 46be
00000230: 4915 553e 378c 3a3e c265 913e 55d0 913e
00000240: c6a4 a63e 1762 5c3d f08e 01bd 5e18 a0bd
00000250: 028d 353e bae6 203e 60ca b33d 305e b13c
00000260: 60fa f53e 47ab 8bbe 298c f9bd 4420 e43d
00000270: 0147 7b3d 0388 b8bc e625 38bc 635d 0dbe
00000280: cad1 263e bee6 59be e8b0 953d 9a4d d9bc
00000290: 3f08 97bd b92b b0bd 6f8c b9bd 1fde 0fbe
000002a0: b486 c73e 3b21 85be 937b 9dbe 5424 4a3e
000002b0: 046f bc3d 1ecd a238 4b23 22be 9954 6d3c
000002c0: 9adc 14be e5a4 053e 6f1c b33d 679c a83d
000002d0: 1591 063e 258d f43c 84b1 1f3e 869b 72be
000002e0: eb98 bd3d 82d2 b33d a45f a23d 3c40 f13d
000002f0: b57c 9b3d 2be0 21be 978f 28be 7368 a23e
00000300: 0509 94bd 9e3e cf3e 5142 70bc 55fa ef3e
00000310: e30d 15be d20f bb3e b8d9 ea3d 596b b73d
00000320: 3db0 12bc e26e 2c3e 25e5 523e 70b8 c7be
00000330: 0d1f b6be c4e7 f9be 3e31 623e f8cd a13d
00000340: 2ae0 8c3e 76b5 19bd bc81 d7be 4c50 c5bd
00000350: b643 713d 6061 bb3d f53e 5e3d a291 f33d
00000360: d29e 2c3e 760f abbd c594 3cbd a97b cf3e
00000370: 9551 823d 89f3 89bd 033a f5bd 731e 993d
00000380: ae6a b03e f5c1 c13d abe5 4d3c 72d0 5bbe
00000390: 24dd 113d d56d 16bf 5f9b a6bd 39a4 2fbf
000003a0: bf8d 68be 2698 943d dbe9 10be c456 1a3e
000003b0: 9cef 3dbd 6b5e 713e 536f 693e ed76 4c3e
000003c0: 08e0 20be 517b 04bf 0fdb a63d 702d 043f
000003d0: 0578 2d3e 39f5 373d 08f1 553d ff9b 1b3d
000003e0: 23af 953e 46cd 3fbf 0752 afbe c324 b33d
000003f0: 0f6c a1bb c488 bc3d 3a8c 47bb 9e5e 633e
-0.009869379 0.33736303 0.081964456 0.12432206 -0.23869209 0.67553496 0.3223166 0.03366557
-0.026399065 0.15509386 -0.049450174 -0.020689053 -0.12380642 -0.11185039 0.10343337 -0.03207872
0.040987935 0.0642736 0.05546642 0.13448262 0.15675616 -0.036023572 0.111946926 0.07146725
0.17229475 -0.1945204 0.058508907 0.044028275 0.122609966 -0.08149243 0.0034177469 -0.027803244
0.11950687 0.055929106 -0.11583516 -0.034620963 0.025039243 -0.02883063 -0.0131553225 -0.08707873
0.24602272 -0.11724887 -0.09271173 0.15152101 0.0033139684 0.06757071 0.021153048 0.13145925
-0.2833583 0.082116455 0.036040004 0.17250706 0.16839804 0.052308224 0.0380475 -0.059998438
-0.021651346 0.056547597 -0.107165016 -0.08188406 0.14537504 -0.07548985 -0.15392327 0.23984297
-0.031602025 -0.2902608 0.072152525 0.29641196 0.382903 0.0856618 -0.122321 -0.14854228
0.18695071 0.00012205343 -0.3594265 -0.24245426 -0.2839307 -0.59469724 0.22996116 -0.4942782
-0.20216061 0.28885806 0.23430513 -0.084086895 -0.2210723 0.043086622 0.27125096 -0.03804775
-0.106942646 -0.06753937 -0.18042421 -0.09177463 0.66008997 0.2972847 -0.11194517 -0.11578843
0.02979493 -0.22128251 0.041127525 -0.5037451 -0.20542096 -0.09968568 -0.23082572 0.04734226
-0.18370825 0.082463846 0.20137092 -0.100628406 0.2776948 -0.35559258 0.18088368 0.014714101
-0.18290338 0.0943825 0.30373907 0.36314106 0.24408886 -0.28193447 0.0100406585 0.12081076
0.15914598 -0.40331903 -0.76814556 -0.51406586 -0.1496878 -0.43768725 -0.17275153 -0.07433959
-0.2348584 0.34989184 0.045367584 0.12536821 -0.25050622 0.516187 0.33120796 0.047757033
-0.40876102 -0.09420229 0.08006449 -0.19351794 0.20808901 0.1821755 0.28397948 0.28479257
0.32547587 0.053804483 -0.031630456 -0.07817148 0.17729571 0.15713015 0.08778834 0.021651357
0.48042583 -0.27279112 -0.121849366 0.11138967 0.06134701 -0.022525793 -0.011239504 -0.13805155
0.16290966 -0.21279427 0.07309133 -0.026526261 -0.0737462 -0.086020894 -0.09059989 -0.14049576
0.38969958 -0.26001915 -0.30758342 0.1974042 0.09200862 7.762968e-05 -0.15833776 0.014485502
-0.14537278 0.13051184 0.08745658 0.082329564 0.13141282 0.02985246 0.1559506 -0.2369214
0.092576824 0.087803856 0.07928398 0.1177983 0.07592145 -0.1580817 -0.16461025 0.31720313
-0.07228283 0.4047746 -0.014664249 0.46870676 -0.14556079 0.36535507 0.11467308 0.08956022
-0.008953151 0.16839173 0.20595224 -0.39007902 -0.35570565 -0.48809636 0.22089097 0.079006135
0.27514774 -0.03752657 -0.42091167 -0.09634456 0.058902465 0.09149432 0.05425926 0.11893012
0.1685746 -0.08352558 -0.046040315 0.40524033 0.06363217 -0.06735904 -0.119739555 0.07476511
0.3445639 0.094608225 0.012566964 -0.21466234 0.035611287 -0.5876134 -0.081351034 -0.6860996
-0.22710322 0.072555825 -0.14151709 0.15072161 -0.046371087 0.23571174 0.22796373 0.19967242
-0.15710461 -0.51750666 0.08147251 0.5163183 0.16940315 0.044911597 0.05223182 0.037990566
0.2923518 -0.749226 -0.3424227 0.08747246 -0.0049262117 0.092057735 -0.0030448572 0.22204062

lstm.bias_ih_l0 f4 [256]
00000000: d299 d1bf c3ba eabe 8810 a8bf ce8c d1bd
00000010: 398d d8be 48cc 21be 8253 27bf 7f3e a5bf
00000020: d3c9 8cbf 4bce 87bf c39a 44bf 550a 07bf
00000030: 2121 d5be 8e6a 6abe 8a3c 6dbe 7055 84bd
00000040: 1f44 27bf 3591 05bf 7188 8d3e bfe5 c4bf
00000050: 6264 49bf ce87 b63f 39ef a2bf a6b3 e7be
00000060: f02f 6abf d2fd 19bf d8f9 8bbf ade8 8bbd
00000070: c3f8 3abf dbb6 eebf c6d9 b4bf a442 0fbe
00000080: d13e 193e 76ea 4bbf e234 7dbf 1c66 21bf
00000090: 52cb 4bbf 0250 53bf e4a7 cfbf 4744 bdbe
000000a0: 3fec a5be 03d9 80bf b8f2 97bf b3f6 57bf
000000b0: 36e0 bdbf 58a7 93bf 2f3c 31bf 10b8 ffbe
000000c0: a583 a2bd 61f7 32be 3952 a3bf 6968 f6be
000000d0: e4e9 d3bf 1ef6 dcbf 6622 d2bf 39fd d2bf
000000e0: e26c c33d 4f25 a0be fa88 98be 7723 89bf
000000f0: 41c7 93bf a86e 8b3e 9756 7abf 257c a2bf
00000100: 1704 8abf 28e8 0f3f 5e59 6ebf 1b6a 7cbf
00000110: c9dd 5d3d 6678 043f 492d 84be 08f0 83bf
00000120: f212 e2be 091f a0bf 5dc6 ecbe eb0c 69bf
00000130: 1285 13be fa4f ae3e 55ae 8bbf b512 1a3f
00000140: cecd ecbd 3194 c1bf d6ad 24bf 4c4c 85bf
00000150: c2a8 f5be 03bd 78be 67fb 96bf d2e4 8cbf
00000160: 9147 febe efb7 b8be 5ea0 8cbf 7e9c d4bc
00000170: 9b0f 04be 8136 5abf 8626 82bf ff61 8abf
00000180: 2fc0 87be 0411 adbf c920 bfbf 1491 8fbe
00000190: e58c 0bbf 49ed b1be ca49 62bf ea41 193f
000001a0: eb5b 993e 185e 48bf d081 45bf 4575 ffbe
000001b0: 27fc 75bf 7013 37bf bd7d 8bbf 5c5c 8ebe
000001c0: 690a f0bf 7cd4 f0be 1d9f 93bf d2ac ad3d
000001d0: 419b 98bf db17 82bf f697 86bf e9c9 85bf
000001e0: e0af e8bf 1ce2 953d 2383 1b3e b741 36bf
000001f0: ee9e b4bf c515 dabf 4bf5 1ebf 4828 60bf
00000200: 681a 43bd 198a 343d 59c7 6b3d ba5b 0fbe
00000210: f9df 5a3d eb2f cfbd 01c9 98bc 5735 9a3b
00000220: 15fa 133d 772a 6ebc 4a58 273c 35f3 f93c
00000230: 4efc 47be ca25 6fbe d52d 92bd 7485 49bd
00000240: 5f45 56be 91af ef3d 7e0e 983d 127e bebd
00000250: 6ba7 9bbd ee54 d7bd 73c2 fdbc 013b dabd
00000260: 12cc 09be f2ea d83d eb9c 91bc 05a9 a4bd
00000270: f9dc 853d a1db f73c 70c3 773d 3faf 95bd
00000280: df9d 0cbe fef4 fcbd 98f8 a4bd bd60 eabd
00000290: add9 bf3c 625e c83d c6d2 86bd e3f6 86bc
000002a0: 87f8 b4bd 1e8d 5dbd 3718 3b3d 66bf 0dbe
000002b0: 0425 173e cfd7 c4bd 5351 31be 2b83 5dbd
000002c0: 8917 04be b8d5 3f3e 4239 163c 4e56 8dbd
000002d0: c5a4 7b3d 1798 01be 4487 983d 0153 823c
000002e0: 020f 7abd 930f 8bbd 7014 f03d a41d 2e3d
000002f0: 95e0 f0bb f56f 2d3e 7b7c 58bc 8fb6 cebd
00000300: 81d5 d5bf 9d69 81be e2bd 9bbf 5a6a dbbc
00000310: 3298 afbe 8897 58ba 7ace 11bf 4c0b 9abf
00000320: e552 85bf c42c 9cbf 9e0e 61bf 2cf6 26bf
00000330: 7c1f d4be 63b5 fc3c cbdc 11bc 58e8 403e
00000340: 3bcc febe 341c 09bf d44d d43e 8b13 b9bf
00000350: 426f 24bf a656 aa3f eac9 9bbf 6dc1 04bf
00000360: 72b4 6abf fc1f febe 4908 8fbf a1bd ddbd
00000370: 82a6 39bf 23f4 eebf fdd4 c2bf 24d1 5abe
00000380: d847 f23d 14ca 62bf 46ab 99bf f8a0 31bf
00000390: 91c3 42bf 14a7 50bf 656e c5bf 0709 a0be
000003a0: 73cd 82be 9426 7abf cbba 95bf a5fd 81bf
000003b0: 3b7b d2bf 5a36 83bf ccd9 42bf 5c54 20bf
000003c0: 59e6 b5bd 4af8 4bbe d350 a8bf d447 03bf
000003d0: c4a7 babf 235e c1bf 9b7c d2bf 7e55 cabf
000003e0: a185 553e 200b c9be ff16 87be ad4e 73bf
000003f0: 176e 8abf 76cd 903e cfab 5ebf 8577 bfbf
-1.6375067 -0.45845613 -1.3130045 -0.102319345 -0.42295244 -0.15800583 -0.653618 -1.2909697
-1.0999092 -1.0609831 -0.7679865 -0.5275014 -0.41626838 -0.2289221 -0.23167625 -0.064616084
-0.6533832 -0.52174693 0.2764316 -1.5382613 -0.78668797 1.4260194 -1.2729255 -0.45254248
-0.91479397 -0.60152924 -1.0935621 -0.06831489 -0.7303583 -1.8649553 -1.4128959 -0.13990265
0.14965369 -0.79654634 -0.9890882 -0.6304643 -0.7960712 -0.8254396 -1.6223111 -0.36966154
-0.32406804 -1.0066227 -1.1870947 -0.8436081 -1.4834049 -1.1535444 -0.6923246 -0.49945116
-0.079352655 -0.1747718 -1.2759467 -0.48126534 -1.6555753 -1.7262609 -1.6416748 -1.6483527
0.09542252 -0.31278464 -0.29792005 -1.0713948 -1.1545182 0.27232862 -0.97788376 -1.2694136
-1.0782498 0.5621362 -0.93105114 -0.98599404 0.05416659 0.51746213 -0.258158 -1.0307627
-0.4415508 -1.2509471 -0.4624509 -0.91035336 -0.14406231 0.34045392 -1.0912577 0.60184795
-0.11562692 -1.512335 -0.6432775 -1.0413909 -0.47980314 -0.24290852 -1.1795472 -1.100733
-0.49663976 -0.3607783 -1.098644 -0.025953528 -0.12896578 -0.85239416 -1.0168006 -1.0811156
-0.26513812 -1.3520818 -1.493188 -0.28040373 -0.54511863 -0.34751347 -0.88393843 0.598662
0.2995294 -0.78268576 -0.77151203 -0.49894157 -0.9608788 -0.71514034 -1.0897747 -0.2780484
-1.8753177 -0.47037113 -1.1532933 0.084802285 -1.192238 -1.016353 -1.0515125 -1.0452243
-1.8178673 0.073185176 0.15186743 -0.7119402 -1.4111001 -1.7037894 -0.6209304 -0.87561464
-0.047632605 0.044077013 0.05756316 -0.13999835 0.053436253 -0.101165615 -0.018650534 0.0047060656
0.03612717 -0.014536492 0.010213921 0.030511478 -0.1952984 -0.23354259 -0.07137648 -0.049199536
-0.209249 0.117034085 0.07424639 -0.0930139 -0.07600292 -0.10514246 -0.03097651 -0.10655785
-0.13456753 0.10591687 -0.01777502 -0.080400504 0.06536288 0.030256094 0.060489118 -0.07308816
-0.13732098 -0.12351416 -0.08055228 -0.114442326 0.023419226 0.09783627 -0.065831706 -0.016475147
-0.08836465 -0.054089658 0.04567739 -0.13842544 0.14760214 -0.09611475 -0.17316179 -0.05408017
-0.12899603 0.18733871 0.009168925 -0.06901227 0.061436433 -0.12655674 0.07447675 0.01590872
-0.06104947 -0.0679008 0.11722648 0.042508736 -0.007350991 0.1693724 -0.013213272 -0.10093414
-1.6705781 -0.2527589 -1.2167323 -0.02678411 -0.34295803 -0.0008262326 -0.56955683 -1.2034698
-1.0415922 -1.2201161 -0.8791293 -0.6521938 -0.4143027 0.03084821 -0.008902739 0.18838632
-0.4976519 -0.5355866 0.41465628 -1.4459089 -0.64232266 1.3307693 -1.2170994 -0.51857644
-0.9168159 -0.49633777 -1.1174403 -0.108271845 -0.72519696 -1.8668255 -1.5221249 -0.21368843
0.11830109 -0.88589597 -1.2005394 -0.69386244 -0.7607966 -0.8150494 -1.5424315 -0.31256887
-0.2554737 -0.97715116 -1.169763 -1.0155531 -1.6443857 -1.0250962 -0.7611358 -0.6262872
-0.08881826 -0.19918934 -1.3149666 -0.51281476 -1.4582448 -1.5106853 -1.6444277 -1.580734
0.20851757 -0.392663 -0.26384732 -0.95041925 -1.0814847 0.28281754 -0.8698091 -1.495835

lstm.bias_hh_l0 f4 [256]
00000000: 3ca5 d8bf e9aa 0abf a3cc 9fbf 7f2c 12be
00000010: f797 cfbe 3999 f6bd 9e78 0ebf 74f9 98bf
00000020: ff84 6ebf b187 a0bf 6347 73bf b731 26bf
00000030: af93 c8be 4af8 58be 1167 26be ea08 23be
00000040: eb9c 26bf e6a1 adbe cdfe 993e 252e cdbf
00000050: b975 51bf acd7 a43f 2e28 93bf 3be7 b5be
00000060: 0c42 84bf c053 c8be f615 9cbf 814a d9bd
00000070: 6efc 24bf fe47 ddbf 969a b7bf bd70 61be
00000080: 9003 743c d79c 81bf 1690 84bf 5cb6 07bf
00000090: 2f87 7abf bb85 58bf f4c4 d2bf d9e1 5bbe
000000a0: 2f81 fcbe b3d1 63bf 5f40 8abf 2b54 69bf
000000b0: 6779 ccbf bb49 8ebf af19 0ebf 0747 24bf
000000c0: bd20 8e3d 1ebc 40bd 3526 b3bf 6ba3 debe
000000d0: 01f3 b8bf 1a92 cdbf 9e29 c6bf 9a85 bbbf
000000e0: 985c b83d 9569 d6be da5c 4bbe 9a20 91bf
000000f0: bd9f 8cbf 4751 6d3e 7994 69bf ca72 b3bf
00000100: c66d 58bf fb6c e43e 09cb 83bf a790 91bf
00000110: a337 bfbc 48de 0d3f 2016 6ebe 9680 67bf
00000120: 710c 9cbe 4889 a3bf 2043 fabe c22f 6cbf
00000130: 953f 0fbe f32c 513e a88c 79bf 9647 2a3f
00000140: 3c73 21be f33d d1bf 412e 31bf a176 82bf
00000150: ccd4 0ebf 1cb9 91bd 6dfa 9dbf 7456 92bf
00000160: 32ee 02bf f0a8 2ebe df33 99bf ac70 7f3d
00000170: adee 75be 9c22 63bf 9ba4 7fbf 89a4 96bf
00000180: 5457 b1bd 664b bdbf 8bc3 c2bf e4a3 9dbe
00000190: 7328 e4be de00 cebe afd5 55bf 7463 393f
000001a0: f818 973e 4c92 4abf 23b8 11bf 2e98 e3be
000001b0: 5baa 5ebf ba61 3ebf de05 8fbf 118e adbe
000001c0: 6176 e9bf 62fd ddbe 3cb4 6fbf 4e96 3bbc
000001d0: 9889 a2bf b9f9 77bf 90a9 77bf 3d1a 77bf
000001e0: 7e2c edbf e4a5 303e 9044 f63d 041c 27bf
000001f0: e80d aabf 7ef0 ecbf 75ca 0dbf aa10 5bbf
00000200: 9f94 0bbd c90c 97bd 9761 4dbd e1b5 f0bd
00000210: f3d8 4bbc 6e7e 783d 4cb4 c0bd 593f 05be
00000220: 7ed1 b73d 9e83 193d a162 c9bd 0f42 3c3e
00000230: 9f0a aabd 7e8a 5ebd e206 373d 6753 4ebe
00000240: 4f3f 89bd 2e9c 413d e4d7 683e d1be 963d
00000250: 8042 3ebd 790b 46be ac45 b03d 873e 9cbd
00000260: f1e8 eebc 685b a73d c582 bfbb e4bb 39be
00000270: 64ec d0ba a4f0 1f3c c148 673d 3fed 23be
00000280: 1b4d f0bd 0087 9bbd fba8 023e 8b6e a23d
00000290: 783c e7bd bc22 e73d 6ff8 d13d 5c1c 80bd
000002a0: d8b0 bebd f50e b9bd ab41 7b3d 7bf3 34bd
000002b0: 63f0 a13c c7d8 02bc 513a 37bd aca6 11be
000002c0: 2609 bebd 883a a53d 70df 4dbc 24f3 5bbc
000002d0: c325 9c3c d8f2 203b efa4 cfbb cdfb d0bd
000002e0: 2003 52bd 242e 32be 3497 cf3c 5de7 25be
000002f0: b5a6 a73b b34d 913d e342 31bd 96a7 09bd
00000300: 05a1 d3bf a211 a4be 049e b6bf b8db 39be
00000310: 1717 f5be b0b6 b33c b8b8 3dbf 4ee0 89bf
00000320: ac0f 7ebf 854a 87bf 0473 49bf 39af 18bf
00000330: c783 c1be 43cd c73c fb12 46be 0402 2ebd
00000340: 3d67 11bf c990 0dbf 463a b13e 5e5b c1bf
00000350: 8eca 56bf 7562 ad3f 0ba7 a8bf 5046 05bf
00000360: 52c4 83bf eedb 06bf 84ab 8dbf dab8 d23d
00000370: f86e 4bbf 177d e1bf a4b0 bebf de74 9abe
00000380: 4fe0 6b3d 181c 7abf 62a7 7ebf c370 3dbf
00000390: bab6 51bf cdfa 48bf 8c30 cfbf 0ed8 4fbe
000003a0: 61cf 92be 7f1b 84bf c80c 9dbf 5a50 64bf
000003b0: a6e8 ccbf 726d 70bf a83c 2abf b449 1cbf
000003c0: 7a1b ebbd 293a 00be 76eb b9bf 0edc 9bbe
000003d0: 6586 cebf 05de d4bf 1f5c bebf 77d8 bbbf
000003e0: ec69 943e cf1f e9be 083e 4fbe bc69 81bf
000003f0: 25e4 81bf f8ba 493e 08ce 7dbf 0646 acbf
-1.6925426 -0.5416704 -1.2484325 -0.14274786 -0.40545627 -0.12040944 -0.556528 -1.1951127
-0.93171686 -1.254141 -0.950308 -0.6491961 -0.39175174 -0.21188465 -0.16250254 -0.15921369
-0.6508319 -0.3391258 0.3007721 -1.6029707 -0.81820256 1.2878318 -1.1496637 -0.35527977
-1.0332656 -0.39126396 -1.2194202 -0.106099136 -0.6444768 -1.7287595 -1.4344051 -0.22015662
0.0148934275 -1.0125989 -1.0356472 -0.53012633 -0.97862524 -0.84579057 -1.6466355 -0.21472873
-0.4931731 -0.8899185 -1.0800894 -0.91144055 -1.5974549 -1.1116251 -0.5550794 -0.6417088
0.06939838 -0.047054403 -1.3996035 -0.43484053 -1.4449159 -1.6060212 -1.548145 -1.4650147
0.09002036 -0.41877428 -0.19859639 -1.1338074 -1.0986248 0.23175536 -0.91242176 -1.4019406
-0.845425 0.44614395 -1.0296336 -1.1372269 -0.02334196 0.554173 -0.23250628 -0.9043058
-0.30478242 -1.277627 -0.48879337 -0.9226037 -0.13989098 0.20427303 -0.9748025 0.6651548
-0.15766615 -1.634703 -0.692112 -1.0192453 -0.5579345 -0.07115385 -1.2342049 -1.1432633
-0.5114471 -0.17056632 -1.1968955 0.06236331 -0.24016829 -0.88724685 -0.99860543 -1.1768962
-0.08659235 -1.4788635 -1.5215925 -0.307891 -0.4456211 -0.40235037 -0.8352918 0.7241738
0.29511237 -0.7912948 -0.56921595 -0.4445204 -0.8697869 -0.7436787 -1.1173666 -0.3389745
-1.8239251 -0.43357378 -0.9363439 -0.01144941 -1.269824 -0.9686542 -0.96743107 -0.9652441
-1.8529203 0.17250782 0.12024796 -0.65277123 -1.3285494 -1.8510892 -0.5538705 -0.855723
-0.034077283 -0.073754855 -0.050141897 -0.11753441 -0.012441861 0.060667448 -0.09409389 -0.13012446
0.08975504 0.037479036 -0.09833265 0.18384574 -0.08302807 -0.054331295 0.0446843 -0.20149003
-0.06701528 0.047268085 0.22738606 0.07360614 -0.046450138 -0.19340314 0.08607039 -0.07629114
-0.02916381 0.08171731 -0.0058444464 -0.18138081 -0.001593959 0.009761963 0.056465868 -0.16008471
-0.11733457 -0.075941086 0.12759773 0.07931241 -0.112908304 0.11285922 0.10252463 -0.06255409
-0.09311074 -0.09036056 0.061341923 -0.044177514 0.019767946 -0.007986254 -0.04473335 -0.14223737
-0.09279089 0.080678046 -0.012565479 -0.013424668 0.019060975 0.0024558809 -0.0063368003 -0.10204277
-0.05127251 -0.17400414 0.025340654 -0.1620154 0.0051163086 0.07094898 -0.04327668 -0.033607088
-1.6533514 -0.32044703 -1.4266973 -0.18150222 -0.4786918 0.021937698 -0.74109983 -1.0771577
-0.99242663 -1.0569617 -0.78691125 -0.5964237 -0.3779585 0.024389869 -0.19343178 -0.04248239
-0.56798154 -0.5529905 0.34614772 -1.5106008 -0.83902824 1.3545672 -1.3175977 -0.52060413
-1.0294287 -0.52679336 -1.1067967 0.10289164 -0.794662 -1.7616299 -1.4897656 -0.30167288
0.057586964 -0.9769912 -0.99474156 -0.74000186 -0.81919444 -0.7850769 -1.618669 -0.20297262
-0.28673843 -1.0320891 -1.2269526 -0.89185107 -1.6008499 -0.93917 -0.66498804 -0.6104996
-0.1147985 -0.12522186 -1.4524982 -0.30441326 -1.6134764 -1.6630255 -1.4871863 -1.4675435
0.28987062 -0.4553208 -0.20238507 -1.0110393 -1.0147749 0.19700229 -0.99142504 -1.345887

lstm.weight_ih_l0_reverse f4 [256, 1]
00000000: 5032 e4be 55c2 0ebf 2fd9 85bd a8ef 4fbe
00000010: 2788 993e 1d53 72bf d3bf 333e fd9b ef3d
00000020: e5fd 143e 314d f1be 8821 61bf ec70 343e
00000030: 12dd 593e 234e a8be ae43 28bf bea0 34bf
00000040: 70f3 10bf 1b0f 9f3e 37e8 9a3e fab0 70bf
00000050: 431c 0b3f 3bd0 303e 0fee 0f3e 7b5b c73e
00000060: 0793 29be a9e4 06bf bd57 bebe 132e 08bf
00000070: 36ad 4f3e cac6 31bd 62d7 15bd 6934 78bd
00000080: da88 c3be c071 37bf 5d09 9fbe 35c1 00bf
00000090: b61f 4ebf 6739 edba 1190 68bf e628 c63c
000000a0: fb38 433e d326 053f aa25 693d abf2 08be
000000b0: 55d2 46be 243d 99be df3f d63d 9fd6 c23e
000000c0: 7a58 5abe 67ab 973e 7a0f c8be 568f 093f
000000d0: 8ca0 40be 7990 23bf 9885 65bf 5a8c d3be
000000e0: 9324 06bf 7f64 10bf 8a50 253f 6f37 4d3d
000000f0: 47c9 413e 1069 66bf 51a8 b53e 1096 14bf
00000100: 24b0 43bf 9457 0cbf 8c84 653e ac95 7cbe
00000110: ff29 12be 3a7d fdbe 83c6 2abf 0d7e 8dbf
00000120: ce4a b6be dc10 9abf 942e 89bf d41c 9fbd
00000130: bb24 9abf fc42 ebbe 7c0a 00bf 95c0 58bf
00000140: 83d0 1fbf 8bba c5be 60b0 063e e590 54be
00000150: 3713 f7be 3bb0 5cbf da0d abbf f2cf 32bf
00000160: 130d 68bf 6d36 e9be ba67 59bf 934a 28bf
00000170: 4277 76bd 12f9 8f3e 747b 27be 678f 0abf
00000180: cf4e 18bf 3333 f5be 5ce4 14bf 0d4c 5dbf
00000190: 82d5 3ebf fa8b 58be c949 98bf d4d3 60be
000001a0: 28e9 0cbf 161a dc3e abad 48bf 5fc3 a8bf
000001b0: 158f 9d3e 3b2b 2dbe 513f 2abe 4992 abbe
000001c0: 3746 a23e 8371 07bf 7a08 a3bf 1008 2cbc
000001d0: 0b06 d53e 86b6 8abf 72ca eabe 228a 03bf
000001e0: 4c96 8fbf be99 a3bf dc37 d4be 6d15 65bf
000001f0: 16f8 963e 00cf c7be 348c 3a3d c284 bbbe
00000200: 45bb 033f 4c3b d13e 93f4 ff3e 65e8 efbe
00000210: 8203 04bf ca4c 1dbc bc32 afbd 5050 543f
00000220: 0fcb f63e f5c7 0ebf 01b6 333f ebd2 0fbf
00000230: a065 503f fb60 be3e 9dbd d4be 1baa d6bd
00000240: dba6 55be 2084 62bf c220 49bf 3fbe e03e
00000250: 2100 523f cc7d 503f 3590 4fbf 0e5b 123f
00000260: 0856 ef3e d76b 32be 84a5 863e 3b44 e9be
00000270: 39f5 21bf cf45 023f 9078 07bf 5980 593e
00000280: fc07 e6be 8823 eebe f7c1 3fbf 82da 0ebd
00000290: 493d c93e 9fa0 46bf 03bd 993e 2057 2ebf
000002a0: bb87 543f 7e76 45bf b1b0 1bbf 3373 00bf
000002b0: f290 7e3e 5de0 0ebf 3102 07bf ffc7 213f
000002c0: f2d7 583c 59ec de3e d6c1 cfbe 502c 3c3f
000002d0: 24de 3dbc dead 3bbe 6625 d23e 6440 813e
000002e0: f1e7 cdbe 821e 453c a8cf 83bf bc83 443f
000002f0: d88b 17bf c4a0 acbe db8f 0d3f cbb9 243f
00000300: c536 03bf 9ee5 15bf 7624 d1be ad74 4fbc
00000310: 1d65 843e 0e9b f0be b785 253e 8909 673e
00000320: cddc 313d 9459 e0be 8614 72bf 6f09 953e
00000330: 490e 083e 4311 0abe 9d10 3bbf f86c 2abf
00000340: 59df 25bf 55b0 ab3e 40b1 b53e 5e32 4dbf
00000350: 319f 033f 0d3e 913c 5c56 603d 0e5a 933e
00000360: a9bd fabe 3895 d9be d8ec d5be 68f4 20bf
00000370: 5cb1 093e 4f80 86be 8f98 afbd c5b4 433a
00000380: a854 dfbe c75a 22bf a171 83be 0577 dabe
00000390: 1d8e 6dbf 36a1 54be 6431 89bf e3b2 cc3c
000003a0: b589 423e e978 213f 1a46 4ebd e80b 49be
000003b0: fa5e bfbc a187 06be 07fa 88bd b84a 463e
000003c0: ce7d 87bd 2fa4 853e 71c5 adbe 8ca6 0d3f
000003d0: 4dba a33e 1d8e 24bf 683b 77bf ca32 f8be
000003e0: 4e37 26bf d9ca ccbe 600e 1a3f e2d9 1abd
000003f0: c703 9fbd 9d4a 67bf 6a3f b13e 7009 1cbf
-0.44569635 -0.5576528 -0.06535565 -0.20306265 0.29986688 -0.9465807 0.17553644 0.11699674
0.14549978 -0.47129205 -0.8794179 0.17621201 0.21275738 -0.32872114 -0.6572827 -0.70557773
-0.56621456 0.31066212 0.3025529 -0.94020045 0.5434 0.17266934 0.14055656 0.38936982
-0.16559993 -0.5269266 -0.37176314 -0.53195304 0.20280918 -0.04340247 -0.03658236 -0.060596857
-0.38190347 -0.71657944 -0.3106183 -0.5029481 -0.8051714 -0.0018098772 -0.9084483 0.024189424
0.19064705 0.52012366 0.056920685 -0.1337382 -0.19416173 -0.2992946 0.10461401 0.38054368
-0.21322814 0.29622957 -0.39074308 0.5373434 -0.18811244 -0.6389232 -0.8965697 -0.41318017
-0.5239956 -0.56403345 0.6457602 0.050101694 0.18924437 -0.9000406 0.35479978 -0.5804148
-0.76440644 -0.54821134 0.22413844 -0.2466647 -0.14273833 -0.49509603 -0.66709155 -1.1054093
-0.35603946 -1.2036395 -1.071734 -0.077691704 -1.2042459 -0.45949543 -0.50016 -0.84668857
-0.6242754 -0.38618883 0.13153219 -0.20758398 -0.48256847 -0.86206406 -1.3363602 -0.6984855
-0.9064495 -0.45549336 -0.849239 -0.6573879 -0.060172327 0.28119713 -0.16355687 -0.54125065
-0.5949525 -0.47890624 -0.5816095 -0.8644417 -0.7454454 -0.21147147 -1.1897517 -0.21955806
-0.5504327 0.42988652 -0.78389996 -1.3184623 0.30773225 -0.16911022 -0.16625716 -0.33510044
0.31694195 -0.5290758 -1.2736962 -0.010499969 0.41606173 -1.0836952 -0.4585758 -0.5138265
-1.1217742 -1.2781293 -0.41448867 -0.8948582 0.2948615 -0.39025116 0.045543864 -0.36624724
0.51457626 0.40865552 0.49991283 -0.4685699 -0.5156785 -0.0096008275 -0.08554599 0.8293505
0.48201796 -0.5577386 0.7019959 -0.5618121 0.8140507 0.37183365 -0.41550913 -0.10481664
-0.20864432 -0.88482857 -0.7856561 0.43895146 0.82031447 0.8144195 -0.8107942 0.5717019
0.46745324 -0.1742395 0.26298153 -0.45559868 -0.63264805 0.5088777 -0.5291834 0.21240367
-0.44927967 -0.46511483 -0.7490534 -0.034876354 0.3930457 -0.7758884 0.30027017 -0.6810169
0.8301961 -0.7713393 -0.60816485 -0.5017578 0.2485998 -0.558111 -0.5273772 0.63195795
0.013235079 0.43539694 -0.40577573 0.73505116 -0.011588607 -0.18328044 0.41044158 0.2524444
-0.4021602 0.012031199 -1.0297747 0.7676351 -0.5919776 -0.33716404 0.5529763 0.64346
-0.51255447 -0.58553493 -0.4084813 -0.012662095 0.25858393 -0.46993297 0.1616429 0.22562231
0.043423463 -0.43818343 -0.94562566 0.2910876 0.132867 -0.13483147 -0.73072225 -0.66572523
-0.64793926 0.33532968 0.35486794 -0.8015498 0.5141478 0.017729783 0.05476986 0.28779644
-0.48972824 -0.42496657 -0.4178226 -0.62872934 0.13446563 -0.26269767 -0.0857402 0.00074655964
-0.43619275 -0.63419765 -0.2567263 -0.4266893 -0.9279497 -0.20764622 -1.0718198 0.024987644
0.18997844 0.6307512 -0.050359823 -0.19633448 -0.023360718 -0.13137676 -0.06688314 0.1936444
-0.06615792 0.26101825 -0.33939698 0.55332255 0.31978074 -0.6427935 -0.9657502 -0.4847625
-0.6492814 -0.3999851 0.60178185 -0.037805445 -0.07764392 -0.90348226 0.34618694 -0.609519

lstm.weight_hh_l0_reverse f4 [256, 64]
00000000: 2507 5bbe 3a52 cbbe ef14 42bf 53d5 b53e
00000010: 33e3 97be 9140 3b3e 69b8 1c3f 4508 39bf
00000020: a452 3cbe 8905 5bbe 5b99 143f ecfa 9abc
00000030: f946 00bf 9362 ec3e 95d1 683e ae99 81be
00000040: 5851 4abd 5b6d 003f d595 a73d 16f4 433e
00000050: 9a53 52bf d16d eebe b055 2d3e b0e2 15bf
00000060: c350 1cbf 4e50 133e ddc3 e5bd 9b4c 1d3e
00000070: a2b1 24be 413f 673f d702 7ebe 2c10 98be
00000080: b73f f8bd 46e9 bebe 38d4 17be 7e72 c2bd
00000090: 6abf 323e 1c23 afbe 4ca4 8b3e 49e7 3cbf
000000a0: 3849 26bf e54f 513f f6b8 b3be b7dd afbe
000000b0: 605e 88be 8a46 4f3f 619b 83be f09b f63e
000000c0: bab2 a7be 34ba 49bc a1df dc3e 4a15 e8be
000000d0: ccc9 753f ff68 16be d339 a2be 0f1d 383e
000000e0: ca37 a3be ac4e 303f 430b 243f 91fc 0e3f
000000f0: 9fc7 183f 8b57 873e 8963 a23d 14ac 343f
00000100: c7dc 65be cf2a bbbd afe2 fcbe caf6 233e
00000110: 81c6 7dbe 1678 2dbe fb51 d83e 1136 0cbf
00000120: bfe3 a53c 9762 90be 3c6a da3e 922f c3bd
00000130: b27d 08bf 5940 953e 593e d03d 14a9 ccbe
00000140: d976 12bd 3f72 e33e 16d7 623e cd41 d23c
00000150: 7bc5 bfbe a6c9 8fbe a508 f33e f90c 03bf
00000160: c136 48bf 9209 1e3e a114 febd c863 433e
00000170: caaf 89be 5616 df3e 3040 81be d48c febd
00000180: 77c1 01be 3ed1 10bf 7833 2c3e 230f 23bf
00000190: 6e4c 5e3e 928b 10bf d4a6 563e 88b4 13bf
000001a0: 51f3 cbbe f1f1 1a3f 6575 06bf 99be 15bf
000001b0: f148 13be d871 0d3f 267f 39bf db62 063f
000001c0: 9f52 4bbe fb11 c43e 54b4 313f 7df7 86bd
000001d0: 0cd2 1a3f ee78 6ebe f91c c5be 4c93 e23d
000001e0: 44e9 36bf d6e9 773f 3e95 993d 0bfa 7d3f
000001f0: 1d1b b43e 4e3e d93d 6b5d 2c3c 5add 033f
00000200: 4f01 9bbe 98d9 d1bd 134b 76be 6aa8 0bbd
00000210: d363 73be dc30 843d 3c59 bfbc dfee 73be
00000220: 18b2 2d3e 27f8 8bbe 4182 bd3e a86c 85bd
00000230: fe5e 55be 7be3 62bd 93da 2c3e 4baa 12bf
00000240: ad35 c83d 2c9c a43c e502 f73e da15 693d
00000250: dc9a 65bd 8466 1ebe fa05 d93d bb77 c23c
00000260: ed9f 61be 123a 0dbe 0538 c83d c4f4 a73e
00000270: 2106 eebe cc33 b43e fc56 febc aab5 a13d
00000280: b014 29bd 05e2 45be d4c4 8ebe e66b 50bd
00000290: 8763 2d3e 91e2 8abe 6775 293e a988 0dbf
000002a0: fbb2 31be 3a49 a83e 590f e0bd 9c90 6e3e
000002b0: 8d4b 77bd 19ef 163f 9f8c 82be e0d5 1e3f
000002c0: 288b 153e d419 203d 1dd4 513e 26d5 b3be
000002d0: 544e d53e 0118 98bd bd19 83be 5b88 0d3d
000002e0: 5106 41be 88f7 b03e dcc6 00bf 4cc3 273e
000002f0: 9968 b83c d3bf 823e 0258 513e b91a 143f
00000300: a68f 5cbe 76ac cdbd b14c 31be 3f0c 0d3f
00000310: 45a6 d2bb a305 0e3e 9b4f c03e 5ffb 47bf
00000320: da60 37bd 6888 18bc 8ae2 ab3e 8a35 23be
00000330: 1c34 31bf 1b32 fb3e fe32 503e 6763 53bd
00000340: a457 5b3d cf6b e53e e809 bb3d b4c3 503e
00000350: 2995 16bf d056 33bf a34d 003f 9f56 2abf
00000360: c26b 2cbf e25b 803e df7c b9be 560c 863d
00000370: 1821 92bc 96cc 3dbe 0270 84bd 11e4 a63d
00000380: 3ce7 8fbe fc4d 1bbf 3913 183e 3141 bebe
00000390: 68b8 adbd 9f1e 4abd 8a4c d23d 80c9 2ebf
000003a0: 837b 50bf ec31 373e 82e5 43be 956d 373d
000003b0: e3b1 bfbe 567d 2f3f c7b3 3cbe ab5a 7f3e
000003c0: 5004 a43d 0a18 603e 8ab3 2a3f ceb7 e8bd
000003d0: c58f 8c3f 2aac 9d3d 2dbc 6ebe 7b29 3b3e
000003e0: 8b49 e4be cca5 473f f061 d83e ba80 273f
000003f0: 843f be3c 0fa9 213d 0e8c 7ebe 82d9 563f
-0.21389444 -0.3971117 -0.7581319 0.35514316 -0.29665527 0.18286349 0.6121889 -0.72278243
-0.183909 -0.2138883 0.580465 -0.018918477 -0.50108296 0.46168956 0.22736199 -0.2531256
-0.04939398 0.50166863 0.08182875 0.1913608 -0.82158816 -0.46568158 0.16927218 -0.5854902
-0.6106073 0.14386103 -0.112189986 0.15361254 -0.16083387 0.9033089 -0.24805771 -0.29699838
-0.12121528 -0.37287349 -0.14827049 -0.09494494 0.17455831 -0.34206474 0.27273786 -0.73790413
-0.6495547 0.81762534 -0.35102051 -0.34348843 -0.26634502 0.8096701 -0.25704482 0.48165846
-0.32753545 -0.012312461 0.43139365 -0.45328742 0.9601104 -0.1468849 -0.3168474 0.17979835
-0.318785 0.68870044 0.64079684 0.55854136 0.596796 0.26433977 0.07929141 0.7057507
-0.22447501 -0.091390245 -0.49391696 0.16012111 -0.24782754 -0.1694034 0.42250046 -0.5477
0.0202502 -0.28200218 0.42659175 -0.09530558 -0.53316796 0.29150656 0.10168142 -0.39972746
-0.035757873 0.444231 0.22152361 0.025666142 -0.37455353 -0.28083533 0.47467533 -0.5119167
-0.7820855 0.15433338 -0.124062784 0.19081032 -0.2689193 0.43571728 -0.25244284 -0.124292046
-0.12671457 -0.5656928 0.16816509 -0.6369497 0.21708843 -0.5646297 0.20962077 -0.57697344
-0.39834073 0.60525423 -0.5252288 -0.58493954 -0.14383294 0.55251837 -0.7245964 0.5249459
-0.19855736 0.38294968 0.69415784 -0.065901734 0.60476756 -0.23288319 -0.38498667 0.11063251
-0.71449685 0.9684118 0.07499169 0.9920966 0.35176936 0.10607587 0.010520319 0.5150963
-0.30274436 -0.10246581 -0.24052076 -0.03409616 -0.23768549 0.06454632 -0.02335798 -0.23821591
0.16962469 -0.27337763 0.37013438 -0.06514865 -0.20837018 -0.055392724 0.16880254 -0.57291096
0.09775863 0.020094 0.48244396 0.056905605 -0.05605589 -0.15468794 0.10596843 0.023738733
-0.22033663 -0.13791683 0.0977631 0.3280393 -0.4648905 0.35195768 -0.031047337 0.07895978
-0.041279495 -0.19324501 -0.27884543 -0.05088415 0.16932498 -0.2712598 0.16548692 -0.5528665
-0.17353432 0.32868367 -0.10940427 0.23297352 -0.060374785 0.58958584 -0.2549791 0.620451
0.14603865 0.03908713 0.20491071 -0.35123557 0.41661322 -0.074264534 -0.25605574 0.034553867
-0.18850066 0.3456385 -0.50303435 0.16383094 0.022510814 0.25536975 0.20443729 0.57853276
-0.21539173 -0.1004266 -0.17314412 0.5509681 -0.0064285123 0.13869338 0.37560734 -0.78117937
-0.0447701 -0.0093098655 0.33571273 -0.15938392 -0.6922014 0.49061665 0.20331952 -0.05160847
0.053550377 0.44808814 0.09132749 0.20387155 -0.5882135 -0.7005434 0.50118464 -0.66538423
-0.67351925 0.250701 -0.36228082 0.06545322 -0.017838046 -0.18535075 -0.06466676 0.08148969
-0.28106105 -0.6066587 0.14851083 -0.37159112 -0.08482438 -0.04934561 0.10268505 -0.68276215
-0.81438464 0.17890137 -0.19130519 0.04478224 -0.37440404 0.6855062 -0.18427955 0.24936931
0.08008635 0.2188417 0.66680205 -0.11363183 1.0981375 0.07698853 -0.23313971 0.18277542
-0.4458736 0.7798736 0.4226222 0.65430796 0.023223646 0.039467867 -0.24858114 0.8392564

lstm.bias_ih_l0_reverse f4 [256]
00000000: 8104 64bf 6fea 0dbf 055c bfbe 442b 30bf
00000010: 50f5 d03d f8bc 05bf 3fec e13e 7448 d03c
00000020: 24e7 e33d e339 7bbe 3f6a 10bf 30a7 853d
00000030: 9c1a 8fbe 96fe 653d 96ed 57bf 8631 87be
00000040: 0568 74bf 62d0 3e3d 23c0 303f 9cf3 08bf
00000050: f645 633e 0bef 2abd 6648 01be 2c46 6d3d
00000060: 5e62 85be fab8 20bf 3652 c7be b4a0 adbe
00000070: 7f85 9d3b 626c f8bd d67e e4bc 7eec 8cba
00000080: 84d0 dabe ef07 c9be a667 abbe fa6b 4ebe
00000090: e492 90bf 9b5f 9c3d 4618 86bf d832 453e
000000a0: 6cc4 bcbc 9d0a a83e 639b b7bd 67c8 8e3d
000000b0: 8adf 05bf 05df 11bf a72e 5bbe 35d0 083e
000000c0: 1326 eebe 73b0 113d af58 4bbe 7d4b af3d
000000d0: a0e6 3abe ccf5 88bf a5e1 89bf 6648 61bf
000000e0: 860e dfbe eb3d 1b3c 9bed de3e 40b7 193e
000000f0: 0d7c 0ebe 3b99 ddbf 5935 093e 7932 fbbd
00000100: 2f3c 65bf a7eb b9be dcc2 b23e 463d 2ebf
00000110: 92c8 11be 48ce d3bd 2bdf c1be 3c32 24bf
00000120: 8108 2bbe ea9a 74bf 7119 35bf d30a 8cbe
00000130: e2a4 26bf 5100 11bf 4d2f 0dbf 0b57 02bf
00000140: d0b4 67bf 16d9 72be 3ef5 47be 72f9 cbbd
00000150: 41df c5be 1a06 04bf a5a4 b4be 408c 11bf
00000160: 3258 08bf 188e 05bf 04f5 14bf 65ba cfbe
00000170: 25af 33be c917 0e3f 5777 c3be f641 5cbe
00000180: 4d5c 13bf deca 88be 3a2c b1be 3394 6abf
00000190: 32d1 40bf 34ea 27bc f34a 85bf 3a57 6c3e
000001a0: 36a8 87be e948 3a3d d778 0fbf 921f 5cbf
000001b0: 77f7 5bbd a5f9 d1be 2ab1 67be c418 b83a
000001c0: 0079 a63e 2f40 38bf 981f 4dbf 55c5 b6be
000001d0: 7420 073f dc57 5dbf 7b4c 89be 2254 21bf
000001e0: 6c94 39bf 15f6 35bf 19b0 d7be a9b5 e2be
000001f0: 11ab a13e 54d0 6ebf 71e8 f3bd 2097 f33c
00000200: 3c29 4e3d c817 bfbd a851 4ebd 7fe7 893c
00000210: c7a2 533d 65dd 833b 0302 3dbe 824a e83d
00000220: e26d 41be 9fd6 d63b ab38 1cbe d967 413d
00000230: 0620 10bd 16da 34be 7547 183e 1254 11be
00000240: a885 bb3d 7fe7 b03c 28fd 863e f839 c4bd
00000250: aa67 8c3d b1b0 c2bb ecb8 30bc 3e9c 093e
00000260: de8f 203e ddc7 513b 5d6d 90bd c780 293e
00000270: dbd6 8d3d 1f63 70bd 8b22 443e 4224 72bd
00000280: ca81 8dbb eedc 5f3e 116a 0d3e e2f8 893e
00000290: 9d8b 073b 687e 773d 3d2a 053c 5a02 133e
000002a0: 8f28 f6bc a9af 773d 5921 133e 525d 493e
000002b0: ed37 2e3d 916c a83d 0e94 f53c ba04 85bd
000002c0: 8587 bf3c c030 363d 6c63 5fbe 5cc3 1ebe
000002d0: 2995 84bc 9e57 fb3d 00c3 ccbd 14e8 1ebd
000002e0: d20e a93c 0b8c 9dbe 8f7c 6fbc ac60 4dbe
000002f0: cb06 3d3c b854 0a3e c229 d3bd 4aef 01be
00000300: cd3d 72bf 0fd7 3abf ae72 89be aa90 37bf
00000310: 569c a23e ea8b 32bf f679 ef3e 2232 d23c
00000320: 1a5d 853b aa23 e9be c059 e4be e814 303e
00000330: 7279 a6be afb2 9e3d af06 6fbf 85c6 efbd
00000340: dbd8 8bbf b2b8 523d d7a8 0a3f c799 bbbe
00000350: c05a cc3e eabc 30be c696 d9bb 4729 9c3e
00000360: 6850 5abe 84e6 24bf aabc bebe aef5 dabe
00000370: 163f 093d 77d2 de3d 88d3 85be 262e a53d
00000380: 3768 17bf f43a e6be 7ca5 2abe 9839 9ebe
00000390: e37f 7bbf f0bd 8a3e a3c0 66bf 4176 b53e
000003a0: 818b fbbd 836e ce3e 73da 89bd f42b 5dbd
000003b0: 5803 0bbf b22e 1bbf 8082 a4be 605b 863e
000003c0: 19c9 96be 1de0 a13d 97c6 61be 3b5e 5e3e
000003d0: 8585 85bd c4db 77bf cd0a 88bf a92f 59bf
000003e0: 3957 f8be 9f35 79bc 9d3f 183f dc0f a13e
000003f0: a390 cdbd b41e d6bf 44a7 8c3e 1671 07be
-0.8906937 -0.5543584 -0.37374893 -0.6881602 0.1020304 -0.5224147 0.44125554 0.025425173
0.11128071 -0.24533801 -0.5641212 0.06526029 -0.2794999 0.056150995 -0.843469 -0.2640497
-0.9547122 0.046585448 0.6904318 -0.5349672 0.22194657 -0.041731875 -0.12625274 0.05792825
-0.2605161 -0.6278225 -0.3892991 -0.3391167 0.0048071737 -0.121300474 -0.027892511 -0.0010751633
-0.4273721 -0.39263865 -0.33477515 -0.20158377 -1.1294827 0.07635423 -1.0476158 0.19257677
-0.02304288 0.32820597 -0.089651845 0.069718175 -0.5229422 -0.56980926 -0.21404515 0.13360675
-0.46513423 0.035568666 -0.19858049 0.0855932 -0.18252039 -1.0700011 -1.0771986 -0.88001096
-0.43565768 0.009475212 0.43540654 0.1501131 -0.13914509 -1.7312387 0.13399257 -0.12265486
-0.8954496 -0.363126 0.3491429 -0.68062246 -0.14236668 -0.103420794 -0.37865576 -0.6413915
-0.16702463 -0.9554888 -0.70741946 -0.27352008 -0.6509534 -0.5664111 -0.551503 -0.5091407
-0.9051027 -0.23715624 -0.19527146 -0.09959687 -0.38646892 -0.5157181 -0.35281864 -0.5685463
-0.53259575 -0.5216994 -0.58186364 -0.40571895 -0.17547281 0.55505043 -0.38176987 -0.21509537
-0.57562715 -0.26717275 -0.34604055 -0.91632384 -0.75319207 -0.0102487095 -1.0413498 0.2308015
-0.26495522 0.04547969 -0.5604376 -0.8598567 -0.053702798 -0.41010776 -0.22626176 0.0014045467
0.3251419 -0.71972936 -0.80126333 -0.35697427 0.52783895 -0.8646219 -0.26816162 -0.63019
-0.724921 -0.71078616 -0.4212654 -0.4427922 0.31575826 -0.93286633 -0.11909569 0.029735148
0.050332293 -0.09330708 -0.050370842 0.016834019 0.05166891 0.004024195 -0.18457799 0.11342336
-0.18889573 0.0065563465 -0.15255992 0.047218177 -0.03518679 -0.17661318 0.14871009 -0.14192227
0.09156352 0.021594761 0.26365018 -0.09581369 0.0685571 -0.0059414734 -0.010786276 0.13438508
0.15679881 0.0032009997 -0.070521094 0.16553031 0.06925746 -0.05868828 0.19153802 -0.05911661
-0.0043184506 0.21861622 0.13809992 0.26947695 0.0020682581 0.060423285 0.008127746 0.14356366
-0.030048637 0.060470257 0.1436819 0.19664505 0.042533804 0.082238324 0.029977825 -0.06495042
0.02338005 0.044480085 -0.2181527 -0.15504211 -0.016184406 0.12272571 -0.09998131 -0.038795546
0.02063695 -0.30770907 -0.014617099 -0.20056409 0.011537264 0.1350888 -0.10310699 -0.12688938
-0.9462555 -0.72984403 -0.26845306 -0.71705115 0.317599 -0.6974474 0.46772736 0.02565867
0.0040699365 -0.45535022 -0.44599724 0.17195475 -0.3251453 0.07748925 -0.93369573 -0.117077865
-1.0925554 0.05144567 0.5416388 -0.3664076 0.39912987 -0.17259565 -0.006640288 0.30500242
-0.21319735 -0.6441424 -0.37253314 -0.42765564 0.03350743 0.10879987 -0.26137948 0.08065443
-0.59143394 -0.44966853 -0.1666469 -0.30903316 -0.98242015 0.27098036 -0.9013769 0.35441783
-0.12282468 0.4031869 -0.06731119 -0.053996995 -0.5430198 -0.60618126 -0.32130814 0.2624159
-0.294503 0.07904074 -0.22048412 0.21715634 -0.065196075 -0.9681971 -1.0628296 -0.8483835
-0.48504046 -0.015210538 0.59472066 0.31457412 -0.10037353 -1.672812 0.27471364 -0.13226733

lstm.bias_hh_l0_reverse f4 [256]
00000000: 0311 86bf c241 23bf 8634 69be 2c6b 21bf
00000010: 3b97 0a3e a66a 0cbf fd00 113f 748a 48bd
00000020: 14f0 0cbc ff13 9dbe 97bf 27bf 7e59 913d
00000030: 34d0 89be a0b6 f93d 16d5 53bf d684 82be
00000040: 9fa7 92bf 5205 4ebd cc23 343f 11e0 f2be
00000050: 5aa4 b13e 1026 1bbd 5ba8 ba3d 92a3 8e3e
00000060: 0a83 dcbd ac7a 1dbf d3c9 e6be a8dc debe
00000070: eb3e 863d 9214 913d 36ed 02be 565b 85bd
00000080: cce6 dabe d1f2 f1be 61ee 22be 9ea9 1fbe
00000090: 5e78 7fbf 21fa 033e 760a 65bf db12 813e
000000a0: 49e5 3bbc f7f2 913e 87fe 66ba 6a28 f7bc
000000b0: 5b5f 0fbf 9d08 0ebf 3370 bdbe 51bd 3f3e
000000c0: 10b0 cfbe 5e06 c93d 4dde d0be 6457 5c3e
000000d0: b080 ebbd ecf9 62bf 9a17 57bf 4fe7 43bf
000000e0: af33 febe 3878 8f3d 6c6a dd3e 13bd be3d
000000f0: 8aab 7c3d dd7a bfbf ff19 a53e 36d5 f6bc
00000100: 2bd0 40bf e808 abbe 6bd0 b23e b03c 43bf
00000110: 2a72 80be eaa5 b0be 0c43 6abe 9bcb 15bf
00000120: af1d 48be 6ee0 5ebf 78a6 47bf d3fa 4bbe
00000130: 51e6 16bf 53fa 09bf 20ff 0fbf 7fc1 1dbf
00000140: f548 70bf d043 c3be c2de 41bd 4042 c93c
00000150: 8fd9 ccbe 2e13 97be a2b9 a2be 18f6 15bf
00000160: 5bba b2be bf37 33bf 1242 10bf 981c cabe
00000170: 5675 a1ba 1aaa 183f dcec 84be e863 b6be
00000180: 5f55 3dbf 0ab8 efbe af62 9ebe 5958 46bf
00000190: 1a2a 63bf 631f c0bd 1dae 91bf 91e6 033d
000001a0: afa0 80be 363d 9a3d 6368 04bf 4208 71bf
000001b0: 541d 703d 875a 73be 05ad ddbe 2c70 7a3d
000001c0: a2b0 843e 1ff9 2abf f784 6cbf b111 b2be
000001d0: 695f ae3e 3c8e 5fbf a397 b3be aff6 26bf
000001e0: b35b 69bf 1a94 2dbf b2a3 00bf 1d78 c6be
000001f0: 0afc c83e c1b3 73bf b63a 8bbd 2cdb e73c
00000200: a181 1bbd 0dc0 ecbd ddb8 08bd 00ba 433d
00000210: cccb 783e ed3c 6c3c 197a a3be 6a16 a43d
00000220: 938d 713c 71c6 c63d ff66 46bd fd83 633e
00000230: e1fe 85bc 028f 85be a5f5 933d 3b00 5abe
00000240: dc1e 03bc cc58 303e 3ea4 393e 74ae c4bd
00000250: 1400 b53d 9da1 e0bd 2d17 8fbd b465 c53d
00000260: 2e28 0c3e c5bb b43d 40ce ee3d b17a 153e
00000270: 2c61 f13d 5144 12be 4cfc ad3d c874 ad3c
00000280: 14fc 283e 9957 b43d ccc9 fe3d d52e a53e
00000290: 527b 87bd e5c1 6b3e 5d9a 483d 3d63 fc3d
000002a0: d1d6 f4bd 8871 543e c56d 803e cd17 863e
000002b0: e59c 15bd 268e 013e 6b2d 213e 2366 20be
000002c0: 47f9 6dbd f25a 34be 5f5e 18be 25ad 6f3b
000002d0: fdfe 4bbe 52cc 453d 7c26 d2bd b011 103d
000002e0: 02ba 183d 9093 9dbe 6334 373d f97c 40be
000002f0: e39d f3bb a3e1 81bc 3d5a 25be b475 f5bd
00000300: 5adf 6bbf fa5d 09bf 164e 85be 4a61 13bf
00000310: 5ced a23e 99a2 13bf 9865 f73e 9c36 0e3d
00000320: 7ce8 613e 1395 ddbe 574c 06bf 2cb4 ba3d
00000330: 606a a8be d693 8f3d 6a46 58bf 92a8 9cbe
00000340: e7f6 75bf 3915 f8bc f2af 403f 397f 96be
00000350: 2bc3 8f3e d412 e4bd 4058 29bd 1234 753e
00000360: 431a 04be f764 fdbe 213e fbbe a63d bbbe
00000370: 4399 883c 38bd 8c3e 0ac7 79be c610 13be
00000380: 2f4f 04bf a647 debe 0f97 cfbd ec77 0ebe
00000390: c195 8abf d801 6a3d 85a0 83bf 842b a23e
000003a0: b380 e1bb 535b b03e 0d8b 9b3d b8be dabd
000003b0: 3759 babe bdda 24bf 4201 20be af0f 933d
000003c0: 188d 7dbe 7e06 953d 8fe5 ddbe 28f5 adb9
000003d0: e86c 1f3d 0dbd 85bf 8b1f 88bf a8d1 59bf
000003e0: 7bb1 11bf 86a3 423d 38e4 1c3f ec19 ac3e
000003f0: 3d0a e2bd 226c cdbf 826c 813e 56ac 47bd
-1.0473942 -0.63772213 -0.22773942 -0.63054156 0.13534252 -0.5485023 0.56642133 -0.048960164
-0.008602161 -0.30679318 -0.6552672 0.070971474 -0.2691666 0.12193036 -0.8274702 -0.2549197
-1.1457404 -0.050298043 0.7036712 -0.47436574 0.34695703 -0.037878096 0.091141425 0.2785917
-0.10767181 -0.6151531 -0.45075855 -0.43527722 0.065549694 0.070840016 -0.12785801 -0.065115616
-0.4275421 -0.47255567 -0.15911247 -0.15592048 -0.9979304 0.12888385 -0.8946909 0.25209698
-0.01146824 0.2850568 -0.0008811731 -0.030170638 -0.56004876 -0.5548189 -0.36999664 0.18724562
-0.40564013 0.098156676 -0.40794602 0.21517712 -0.114991546 -0.886626 -0.8402039 -0.76524824
-0.49648806 0.07005352 0.43245256 0.09313407 0.06168703 -1.495937 0.32246396 -0.030130964
-0.7531764 -0.33405232 0.34924635 -0.76264477 -0.250871 -0.34501582 -0.22877139 -0.585138
-0.19542573 -0.870612 -0.77988386 -0.199199 -0.58945185 -0.5389759 -0.56248665 -0.61623377
-0.93861324 -0.38137674 -0.04733158 0.024567723 -0.40009734 -0.2950682 -0.31782252 -0.58578634
-0.34907803 -0.70006937 -0.56350815 -0.3947494 -0.0012318294 0.59634554 -0.2596196 -0.35623097
-0.7395839 -0.46820098 -0.30934665 -0.7747856 -0.88736117 -0.093809865 -1.138126 0.032202307
-0.25122592 0.07531206 -0.5172178 -0.94153225 0.05862172 -0.23765002 -0.43296066 0.06114213
0.2591601 -0.6678638 -0.9239039 -0.34779122 0.34057167 -0.8732641 -0.35076627 -0.6522016
-0.91155547 -0.6780411 -0.5024978 -0.38763514 0.3925479 -0.9519616 -0.067983076 0.028302751
-0.03796542 -0.11560068 -0.033379424 0.047784805 0.24296492 0.014418823 -0.3192909 0.08012088
0.014743227 0.097058184 -0.04843807 0.22218318 -0.016356887 -0.2608567 0.07224587 -0.2128915
-0.008002963 0.17221373 0.1812906 -0.09603587 0.088379055 -0.10968325 -0.06986842 0.09638539
0.13687202 0.08824877 0.11660433 0.14597584 0.11786112 -0.14283873 0.084953874 0.02117385
0.1650241 0.088057704 0.124408334 0.32262293 -0.06615318 0.23023184 0.048975337 0.12323616
-0.119550355 0.20746434 0.25083748 0.26190034 -0.03652658 0.12651882 0.15739982 -0.15663962
-0.058099058 -0.17612818 -0.1487975 0.0036571708 -0.19921489 0.04829056 -0.102612466 0.035173118
0.037286766 -0.30776644 0.044727694 -0.18797673 -0.007434593 -0.015854662 -0.16147704 -0.11985341
-0.9213768 -0.5365902 -0.26036137 -0.57570326 0.31821716 -0.5766998 0.48319697 0.03472005
0.22061342 -0.43277797 -0.52460235 0.09116396 -0.32893658 0.07010619 -0.84482443 -0.3059736
-0.9607987 -0.030283557 0.7526847 -0.29393938 0.2807859 -0.11136404 -0.041343927 0.23945644
-0.12900643 -0.49491093 -0.49070838 -0.36570472 0.016674643 0.27488112 -0.24392334 -0.14361867
-0.51683325 -0.43414038 -0.10136234 -0.13912934 -1.0826951 0.057130665 -1.0283362 0.31673825
-0.006881797 0.34444675 0.07594881 -0.10680908 -0.3639619 -0.6439627 -0.1562548 0.07180726
-0.24760854 0.07276629 -0.43339202 -0.00033179787 0.03892222 -1.0448319 -1.0634626 -0.85085535
-0.5691144 0.04751923 0.61285734 0.33613527 -0.11037109 -1.6048625 0.25278097 -0.048748337
